…
      "outputs": [
        {
          "output_type": "stream",
          "name": "stdout",
          "text": [
            "Model: \"model\"\n",
            "_________________________________________________________________\n",
            " Layer (type)                Output Shape              Param #   \n",
            "=================================================================\n",
            " input_1 (InputLayer)        [(None, 128, 128, 3)]     0         \n",
            "                                                                 \n",
            " conv2d (Conv2D)             (None, 128, 128, 32)      416       \n",
            "                                                                 \n",
            " conv2d_1 (Conv2D)           (None, 128, 128, 32)      4128      \n",
            "                                                                 \n",
            " conv2d_2 (Conv2D)           (None, 128, 128, 32)      4128      \n",
            "                                                                 \n",
            " conv2d_3 (Conv2D)           (None, 128, 128, 32)      4128      \n",
            "                                                                 \n",
            " conv2d_4 (Conv2D)           (None, 128, 128, 32)      4128      \n",
            "                                                                 \n",
            " conv2d_5 (Conv2D)           (None, 128, 128, 32)      4128      \n",
            "                                                                 \n",
            " max_pooling2d (MaxPooling2D  (None, 64, 64, 32)       0         \n",
            " )                                                               \n",
            "                                                                 \n",
            " conv2d_6 (Conv2D)           (None, 64, 64, 1)         33        \n",
            "                                                                 \n",
            " up_sampling2d (UpSampling2D  (None, 128, 128, 1)      0         \n",
            " )                                                               \n",
            "                                                                 \n",
            " conv2d_7 (Conv2D)           (None, 128, 128, 32)      160       \n",
            "                                                                 \n",
            " conv2d_8 (Conv2D)           (None, 128, 128, 32)      4128      \n",
            "                                                                 \n",
            " conv2d_9 (Conv2D)           (None, 128, 128, 32)      4128      \n",
            "                                                                 \n",
            " conv2d_10 (Conv2D)          (None, 128, 128, 32)      4128      \n",
            "                                                                 \n",
            " conv2d_11 (Conv2D)          (None, 128, 128, 32)      4128      \n",
            "                                                                 \n",
            " conv2d_12 (Conv2D)          (None, 128, 128, 32)      4128      \n",
            "                                                                 \n",
            " conv2d_13 (Conv2D)          (None, 128, 128, 3)       99        \n",
            "                                                                 \n",
            "=================================================================\n",
            "Total params: 41,988\n",
            "Trainable params: 41,988\n",
            "Non-trainable params: 0\n",
            "_________________________________________________________________\n"
          ]
        }
…
